{"cases":[{"name":"const_and_arg","text":"module {\n  func.func public @main(%0: tensor<2xf32>) -> (tensor<f32>, tensor<2xf32>) {\n    %1 = stablehlo.constant dense<2.000000e+00> : tensor<f32>\n    return %1, %0 : tensor<f32>, tensor<2xf32>\n  }\n}\n"},{"name":"const_mat_f32","text":"module {\n  func.func public @main() -> (tensor<2x2xf32>) {\n    %0 = stablehlo.constant dense<[[1.000000e+00, 2.000000e+00], [3.000000e+00, 4.000000e+00]]> : tensor<2x2xf32>\n    return %0 : tensor<2x2xf32>\n  }\n}\n"},{"name":"const_neg_zero","text":"module {\n  func.func public @main() -> (tensor<3xf32>) {\n    %0 = stablehlo.constant dense<[-0.000000e+00, 1.500000e+00, -2.250000e+00]> : tensor<3xf32>\n    return %0 : tensor<3xf32>\n  }\n}\n"},{"name":"const_scalar_bool","text":"module {\n  func.func public @main() -> (tensor<i1>) {\n    %0 = stablehlo.constant dense<true> : tensor<i1>\n    return %0 : tensor<i1>\n  }\n}\n"},{"name":"const_scalar_f32","text":"module {\n  func.func public @main() -> (tensor<f32>) {\n    %0 = stablehlo.constant dense<2.000000e+00> : tensor<f32>\n    return %0 : tensor<f32>\n  }\n}\n"},{"name":"const_scalar_i32","text":"module {\n  func.func public @main() -> (tensor<i32>) {\n    %0 = stablehlo.constant dense<7> : tensor<i32>\n    return %0 : tensor<i32>\n  }\n}\n"},{"name":"const_splat_f32","text":"module {\n  func.func public @main() -> (tensor<2xf32>) {\n    %0 = stablehlo.constant dense<2.000000e+00> : tensor<2xf32>\n    return %0 : tensor<2xf32>\n  }\n}\n"},{"name":"const_splat_i32","text":"module {\n  func.func public @main() -> (tensor<3xi32>) {\n    %0 = stablehlo.constant dense<5> : tensor<3xi32>\n    return %0 : tensor<3xi32>\n  }\n}\n"},{"name":"const_vec_f32","text":"module {\n  func.func public @main() -> (tensor<3xf32>) {\n    %0 = stablehlo.constant dense<[1.000000e+00, 2.000000e+00, 3.000000e+00]> : tensor<3xf32>\n    return %0 : tensor<3xf32>\n  }\n}\n"},{"name":"const_vec_i32","text":"module {\n  func.func public @main() -> (tensor<3xi32>) {\n    %0 = stablehlo.constant dense<[1, 2, 3]> : tensor<3xi32>\n    return %0 : tensor<3xi32>\n  }\n}\n"},{"name":"dup_out","text":"module {\n  func.func public @main(%0: tensor<2xf32>) -> (tensor<2xf32>, tensor<2xf32>) {\n    return %0, %0 : tensor<2xf32>, tensor<2xf32>\n  }\n}\n"},{"name":"identity_scalar","text":"module {\n  func.func public @main(%0: tensor<f32>) -> (tensor<f32>) {\n    return %0 : tensor<f32>\n  }\n}\n"},{"name":"identity_vec","text":"module {\n  func.func public @main(%0: tensor<3xf32>) -> (tensor<3xf32>) {\n    return %0 : tensor<3xf32>\n  }\n}\n"},{"name":"multi_out","text":"module {\n  func.func public @main(%0: tensor<2xf32>, %1: tensor<3xi32>) -> (tensor<2xf32>, tensor<3xi32>) {\n    return %0, %1 : tensor<2xf32>, tensor<3xi32>\n  }\n}\n"}]}
