{"cases":[{"name":"binary_add","text":"module {\n  func.func public @main(%0: tensor<3xf32>, %1: tensor<3xf32>) -> (tensor<3xf32>) {\n    %2 = stablehlo.add %0, %1 : tensor<3xf32>\n    return %2 : tensor<3xf32>\n  }\n}\n"},{"name":"binary_and","text":"module {\n  func.func public @main(%0: tensor<3xi32>, %1: tensor<3xi32>) -> (tensor<3xi32>) {\n    %2 = stablehlo.and %0, %1 : tensor<3xi32>\n    return %2 : tensor<3xi32>\n  }\n}\n"},{"name":"binary_atan2","text":"module {\n  func.func public @main(%0: tensor<3xf32>, %1: tensor<3xf32>) -> (tensor<3xf32>) {\n    %2 = stablehlo.atan2 %0, %1 : tensor<3xf32>\n    return %2 : tensor<3xf32>\n  }\n}\n"},{"name":"binary_div","text":"module {\n  func.func public @main(%0: tensor<3xf32>, %1: tensor<3xf32>) -> (tensor<3xf32>) {\n    %2 = stablehlo.divide %0, %1 : tensor<3xf32>\n    return %2 : tensor<3xf32>\n  }\n}\n"},{"name":"binary_max","text":"module {\n  func.func public @main(%0: tensor<3xf32>, %1: tensor<3xf32>) -> (tensor<3xf32>) {\n    %2 = stablehlo.maximum %0, %1 : tensor<3xf32>\n    return %2 : tensor<3xf32>\n  }\n}\n"},{"name":"binary_min","text":"module {\n  func.func public @main(%0: tensor<3xf32>, %1: tensor<3xf32>) -> (tensor<3xf32>) {\n    %2 = stablehlo.minimum %0, %1 : tensor<3xf32>\n    return %2 : tensor<3xf32>\n  }\n}\n"},{"name":"binary_mul","text":"module {\n  func.func public @main(%0: tensor<3xf32>, %1: tensor<3xf32>) -> (tensor<3xf32>) {\n    %2 = stablehlo.multiply %0, %1 : tensor<3xf32>\n    return %2 : tensor<3xf32>\n  }\n}\n"},{"name":"binary_mulhi","text":"module {\n  func.func public @main(%0: tensor<3xi32>, %1: tensor<3xi32>) -> (tensor<3xi32>) {\n    %2 = chlo.mulhi %0, %1 : tensor<3xi32>, tensor<3xi32> -> tensor<3xi32>\n    return %2 : tensor<3xi32>\n  }\n}\n"},{"name":"binary_nextafter","text":"module {\n  func.func public @main(%0: tensor<3xf32>, %1: tensor<3xf32>) -> (tensor<3xf32>) {\n    %2 = chlo.next_after %0, %1 : tensor<3xf32>, tensor<3xf32> -> tensor<3xf32>\n    return %2 : tensor<3xf32>\n  }\n}\n"},{"name":"binary_or","text":"module {\n  func.func public @main(%0: tensor<3xi32>, %1: tensor<3xi32>) -> (tensor<3xi32>) {\n    %2 = stablehlo.or %0, %1 : tensor<3xi32>\n    return %2 : tensor<3xi32>\n  }\n}\n"},{"name":"binary_pow","text":"module {\n  func.func public @main(%0: tensor<3xf32>, %1: tensor<3xf32>) -> (tensor<3xf32>) {\n    %2 = stablehlo.power %0, %1 : tensor<3xf32>\n    return %2 : tensor<3xf32>\n  }\n}\n"},{"name":"binary_rem","text":"module {\n  func.func public @main(%0: tensor<3xf32>, %1: tensor<3xf32>) -> (tensor<3xf32>) {\n    %2 = stablehlo.remainder %0, %1 : tensor<3xf32>\n    return %2 : tensor<3xf32>\n  }\n}\n"},{"name":"binary_shift_left","text":"module {\n  func.func public @main(%0: tensor<3xi32>, %1: tensor<3xi32>) -> (tensor<3xi32>) {\n    %2 = stablehlo.shift_left %0, %1 : tensor<3xi32>\n    return %2 : tensor<3xi32>\n  }\n}\n"},{"name":"binary_shift_right_arithmetic","text":"module {\n  func.func public @main(%0: tensor<3xi32>, %1: tensor<3xi32>) -> (tensor<3xi32>) {\n    %2 = stablehlo.shift_right_arithmetic %0, %1 : tensor<3xi32>\n    return %2 : tensor<3xi32>\n  }\n}\n"},{"name":"binary_shift_right_logical","text":"module {\n  func.func public @main(%0: tensor<3xi32>, %1: tensor<3xi32>) -> (tensor<3xi32>) {\n    %2 = stablehlo.shift_right_logical %0, %1 : tensor<3xi32>\n    return %2 : tensor<3xi32>\n  }\n}\n"},{"name":"binary_sub","text":"module {\n  func.func public @main(%0: tensor<3xf32>, %1: tensor<3xf32>) -> (tensor<3xf32>) {\n    %2 = stablehlo.subtract %0, %1 : tensor<3xf32>\n    return %2 : tensor<3xf32>\n  }\n}\n"},{"name":"binary_xor","text":"module {\n  func.func public @main(%0: tensor<3xi32>, %1: tensor<3xi32>) -> (tensor<3xi32>) {\n    %2 = stablehlo.xor %0, %1 : tensor<3xi32>\n    return %2 : tensor<3xi32>\n  }\n}\n"},{"name":"const_and_arg","text":"module {\n  func.func public @main(%0: tensor<2xf32>) -> (tensor<f32>, tensor<2xf32>) {\n    %1 = stablehlo.constant dense<2.000000e+00> : tensor<f32>\n    return %1, %0 : tensor<f32>, tensor<2xf32>\n  }\n}\n"},{"name":"const_mat_f32","text":"module {\n  func.func public @main() -> (tensor<2x2xf32>) {\n    %0 = stablehlo.constant dense<[[1.000000e+00, 2.000000e+00], [3.000000e+00, 4.000000e+00]]> : tensor<2x2xf32>\n    return %0 : tensor<2x2xf32>\n  }\n}\n"},{"name":"const_neg_zero","text":"module {\n  func.func public @main() -> (tensor<3xf32>) {\n    %0 = stablehlo.constant dense<[-0.000000e+00, 1.500000e+00, -2.250000e+00]> : tensor<3xf32>\n    return %0 : tensor<3xf32>\n  }\n}\n"},{"name":"const_scalar_bool","text":"module {\n  func.func public @main() -> (tensor<i1>) {\n    %0 = stablehlo.constant dense<true> : tensor<i1>\n    return %0 : tensor<i1>\n  }\n}\n"},{"name":"const_scalar_f32","text":"module {\n  func.func public @main() -> (tensor<f32>) {\n    %0 = stablehlo.constant dense<2.000000e+00> : tensor<f32>\n    return %0 : tensor<f32>\n  }\n}\n"},{"name":"const_scalar_i32","text":"module {\n  func.func public @main() -> (tensor<i32>) {\n    %0 = stablehlo.constant dense<7> : tensor<i32>\n    return %0 : tensor<i32>\n  }\n}\n"},{"name":"const_splat_f32","text":"module {\n  func.func public @main() -> (tensor<2xf32>) {\n    %0 = stablehlo.constant dense<2.000000e+00> : tensor<2xf32>\n    return %0 : tensor<2xf32>\n  }\n}\n"},{"name":"const_splat_i32","text":"module {\n  func.func public @main() -> (tensor<3xi32>) {\n    %0 = stablehlo.constant dense<5> : tensor<3xi32>\n    return %0 : tensor<3xi32>\n  }\n}\n"},{"name":"const_vec_f32","text":"module {\n  func.func public @main() -> (tensor<3xf32>) {\n    %0 = stablehlo.constant dense<[1.000000e+00, 2.000000e+00, 3.000000e+00]> : tensor<3xf32>\n    return %0 : tensor<3xf32>\n  }\n}\n"},{"name":"const_vec_i32","text":"module {\n  func.func public @main() -> (tensor<3xi32>) {\n    %0 = stablehlo.constant dense<[1, 2, 3]> : tensor<3xi32>\n    return %0 : tensor<3xi32>\n  }\n}\n"},{"name":"dup_out","text":"module {\n  func.func public @main(%0: tensor<2xf32>) -> (tensor<2xf32>, tensor<2xf32>) {\n    return %0, %0 : tensor<2xf32>, tensor<2xf32>\n  }\n}\n"},{"name":"identity_scalar","text":"module {\n  func.func public @main(%0: tensor<f32>) -> (tensor<f32>) {\n    return %0 : tensor<f32>\n  }\n}\n"},{"name":"identity_vec","text":"module {\n  func.func public @main(%0: tensor<3xf32>) -> (tensor<3xf32>) {\n    return %0 : tensor<3xf32>\n  }\n}\n"},{"name":"multi_out","text":"module {\n  func.func public @main(%0: tensor<2xf32>, %1: tensor<3xi32>) -> (tensor<2xf32>, tensor<3xi32>) {\n    return %0, %1 : tensor<2xf32>, tensor<3xi32>\n  }\n}\n"},{"name":"unary_abs","text":"module {\n  func.func public @main(%0: tensor<3xf32>) -> (tensor<3xf32>) {\n    %1 = stablehlo.abs %0 : tensor<3xf32>\n    return %1 : tensor<3xf32>\n  }\n}\n"},{"name":"unary_acos","text":"module {\n  func.func public @main(%0: tensor<3xf32>) -> (tensor<3xf32>) {\n    %1 = chlo.acos %0 : tensor<3xf32> -> tensor<3xf32>\n    return %1 : tensor<3xf32>\n  }\n}\n"},{"name":"unary_acosh","text":"module {\n  func.func public @main(%0: tensor<3xf32>) -> (tensor<3xf32>) {\n    %1 = chlo.acosh %0 : tensor<3xf32> -> tensor<3xf32>\n    return %1 : tensor<3xf32>\n  }\n}\n"},{"name":"unary_asin","text":"module {\n  func.func public @main(%0: tensor<3xf32>) -> (tensor<3xf32>) {\n    %1 = chlo.asin %0 : tensor<3xf32> -> tensor<3xf32>\n    return %1 : tensor<3xf32>\n  }\n}\n"},{"name":"unary_asinh","text":"module {\n  func.func public @main(%0: tensor<3xf32>) -> (tensor<3xf32>) {\n    %1 = chlo.asinh %0 : tensor<3xf32> -> tensor<3xf32>\n    return %1 : tensor<3xf32>\n  }\n}\n"},{"name":"unary_atan","text":"module {\n  func.func public @main(%0: tensor<3xf32>) -> (tensor<3xf32>) {\n    %1 = chlo.atan %0 : tensor<3xf32> -> tensor<3xf32>\n    return %1 : tensor<3xf32>\n  }\n}\n"},{"name":"unary_atanh","text":"module {\n  func.func public @main(%0: tensor<3xf32>) -> (tensor<3xf32>) {\n    %1 = chlo.atanh %0 : tensor<3xf32> -> tensor<3xf32>\n    return %1 : tensor<3xf32>\n  }\n}\n"},{"name":"unary_cbrt","text":"module {\n  func.func public @main(%0: tensor<3xf32>) -> (tensor<3xf32>) {\n    %1 = stablehlo.cbrt %0 : tensor<3xf32>\n    return %1 : tensor<3xf32>\n  }\n}\n"},{"name":"unary_ceil","text":"module {\n  func.func public @main(%0: tensor<3xf32>) -> (tensor<3xf32>) {\n    %1 = stablehlo.ceil %0 : tensor<3xf32>\n    return %1 : tensor<3xf32>\n  }\n}\n"},{"name":"unary_clz","text":"module {\n  func.func public @main(%0: tensor<3xi32>) -> (tensor<3xi32>) {\n    %1 = stablehlo.count_leading_zeros %0 : tensor<3xi32>\n    return %1 : tensor<3xi32>\n  }\n}\n"},{"name":"unary_copy","text":"module {\n  func.func public @main(%0: tensor<3xf32>) -> (tensor<3xf32>) {\n    return %0 : tensor<3xf32>\n  }\n}\n"},{"name":"unary_cos","text":"module {\n  func.func public @main(%0: tensor<3xf32>) -> (tensor<3xf32>) {\n    %1 = stablehlo.cosine %0 : tensor<3xf32>\n    return %1 : tensor<3xf32>\n  }\n}\n"},{"name":"unary_cosh","text":"module {\n  func.func public @main(%0: tensor<3xf32>) -> (tensor<3xf32>) {\n    %1 = chlo.cosh %0 : tensor<3xf32> -> tensor<3xf32>\n    return %1 : tensor<3xf32>\n  }\n}\n"},{"name":"unary_exp","text":"module {\n  func.func public @main(%0: tensor<3xf32>) -> (tensor<3xf32>) {\n    %1 = stablehlo.exponential %0 : tensor<3xf32>\n    return %1 : tensor<3xf32>\n  }\n}\n"},{"name":"unary_exp2","text":"module {\n  func.func public @main(%0: tensor<3xf32>) -> (tensor<3xf32>) {\n    %1 = stablehlo.constant dense<0.693147182> : tensor<f32>\n    %2 = stablehlo.broadcast_in_dim %1, dims = [] : (tensor<f32>) -> tensor<3xf32>\n    %3 = stablehlo.multiply %2, %0 : tensor<3xf32>\n    %4 = stablehlo.exponential %3 : tensor<3xf32>\n    return %4 : tensor<3xf32>\n  }\n}\n"},{"name":"unary_expm1","text":"module {\n  func.func public @main(%0: tensor<3xf32>) -> (tensor<3xf32>) {\n    %1 = stablehlo.exponential_minus_one %0 : tensor<3xf32>\n    return %1 : tensor<3xf32>\n  }\n}\n"},{"name":"unary_floor","text":"module {\n  func.func public @main(%0: tensor<3xf32>) -> (tensor<3xf32>) {\n    %1 = stablehlo.floor %0 : tensor<3xf32>\n    return %1 : tensor<3xf32>\n  }\n}\n"},{"name":"unary_integer_pow","text":"module {\n  func.func public @main(%0: tensor<3xf32>) -> (tensor<3xf32>) {\n    %1 = stablehlo.multiply %0, %0 : tensor<3xf32>\n    %2 = stablehlo.multiply %1, %0 : tensor<3xf32>\n    return %2 : tensor<3xf32>\n  }\n}\n"},{"name":"unary_is_finite","text":"module {\n  func.func public @main(%0: tensor<3xf32>) -> (tensor<3xi1>) {\n    %1 = stablehlo.is_finite %0 : (tensor<3xf32>) -> tensor<3xi1>\n    return %1 : tensor<3xi1>\n  }\n}\n"},{"name":"unary_log","text":"module {\n  func.func public @main(%0: tensor<3xf32>) -> (tensor<3xf32>) {\n    %1 = stablehlo.log %0 : tensor<3xf32>\n    return %1 : tensor<3xf32>\n  }\n}\n"},{"name":"unary_log1p","text":"module {\n  func.func public @main(%0: tensor<3xf32>) -> (tensor<3xf32>) {\n    %1 = stablehlo.log_plus_one %0 : tensor<3xf32>\n    return %1 : tensor<3xf32>\n  }\n}\n"},{"name":"unary_logistic","text":"module {\n  func.func public @main(%0: tensor<3xf32>) -> (tensor<3xf32>) {\n    %1 = stablehlo.negate %0 : tensor<3xf32>\n    %2 = stablehlo.exponential %1 : tensor<3xf32>\n    %3 = stablehlo.constant dense<1.000000e+00> : tensor<f32>\n    %4 = stablehlo.broadcast_in_dim %3, dims = [] : (tensor<f32>) -> tensor<3xf32>\n    %5 = stablehlo.add %4, %2 : tensor<3xf32>\n    %6 = stablehlo.constant dense<1.000000e+00> : tensor<f32>\n    %7 = stablehlo.broadcast_in_dim %6, dims = [] : (tensor<f32>) -> tensor<3xf32>\n    %8 = stablehlo.divide %7, %5 : tensor<3xf32>\n    return %8 : tensor<3xf32>\n  }\n}\n"},{"name":"unary_neg","text":"module {\n  func.func public @main(%0: tensor<3xf32>) -> (tensor<3xf32>) {\n    %1 = stablehlo.negate %0 : tensor<3xf32>\n    return %1 : tensor<3xf32>\n  }\n}\n"},{"name":"unary_not","text":"module {\n  func.func public @main(%0: tensor<3xi32>) -> (tensor<3xi32>) {\n    %1 = stablehlo.not %0 : tensor<3xi32>\n    return %1 : tensor<3xi32>\n  }\n}\n"},{"name":"unary_population_count","text":"module {\n  func.func public @main(%0: tensor<3xi32>) -> (tensor<3xi32>) {\n    %1 = stablehlo.popcnt %0 : tensor<3xi32>\n    return %1 : tensor<3xi32>\n  }\n}\n"},{"name":"unary_round","text":"module {\n  func.func public @main(%0: tensor<3xf32>) -> (tensor<3xf32>) {\n    %1 = stablehlo.round_nearest_afz %0 : tensor<3xf32>\n    return %1 : tensor<3xf32>\n  }\n}\n"},{"name":"unary_rsqrt","text":"module {\n  func.func public @main(%0: tensor<3xf32>) -> (tensor<3xf32>) {\n    %1 = stablehlo.rsqrt %0 : tensor<3xf32>\n    return %1 : tensor<3xf32>\n  }\n}\n"},{"name":"unary_sign","text":"module {\n  func.func public @main(%0: tensor<3xf32>) -> (tensor<3xf32>) {\n    %1 = stablehlo.sign %0 : tensor<3xf32>\n    return %1 : tensor<3xf32>\n  }\n}\n"},{"name":"unary_sin","text":"module {\n  func.func public @main(%0: tensor<3xf32>) -> (tensor<3xf32>) {\n    %1 = stablehlo.sine %0 : tensor<3xf32>\n    return %1 : tensor<3xf32>\n  }\n}\n"},{"name":"unary_sinh","text":"module {\n  func.func public @main(%0: tensor<3xf32>) -> (tensor<3xf32>) {\n    %1 = chlo.sinh %0 : tensor<3xf32> -> tensor<3xf32>\n    return %1 : tensor<3xf32>\n  }\n}\n"},{"name":"unary_sqrt","text":"module {\n  func.func public @main(%0: tensor<3xf32>) -> (tensor<3xf32>) {\n    %1 = stablehlo.sqrt %0 : tensor<3xf32>\n    return %1 : tensor<3xf32>\n  }\n}\n"},{"name":"unary_square","text":"module {\n  func.func public @main(%0: tensor<3xf32>) -> (tensor<3xf32>) {\n    %1 = chlo.square %0 : tensor<3xf32> -> tensor<3xf32>\n    return %1 : tensor<3xf32>\n  }\n}\n"},{"name":"unary_tan","text":"module {\n  func.func public @main(%0: tensor<3xf32>) -> (tensor<3xf32>) {\n    %1 = stablehlo.tan %0 : tensor<3xf32>\n    return %1 : tensor<3xf32>\n  }\n}\n"},{"name":"unary_tanh","text":"module {\n  func.func public @main(%0: tensor<3xf32>) -> (tensor<3xf32>) {\n    %1 = stablehlo.tanh %0 : tensor<3xf32>\n    return %1 : tensor<3xf32>\n  }\n}\n"}]}
