{"cases":[{"name":"argmax","text":"module {\n  func.func public @main(%0: tensor<3xf32>) -> (tensor<i32>) {\n    %1 = call @argmax(%0) : (tensor<3xf32>) -> tensor<i32>\n    return %1 : tensor<i32>\n  }\n  func.func private @argmax(%0: tensor<3xf32>) -> tensor<i32> {\n    %1 = stablehlo.iota dim = 0 : tensor<3xi32>\n    %2 = stablehlo.constant dense<0xFF800000> : tensor<f32>\n    %3 = stablehlo.constant dense<0> : tensor<i32>\n    %4:2 = stablehlo.reduce(%0 init: %2), (%1 init: %3) across dimensions = [0] : (tensor<3xf32>, tensor<3xi32>, tensor<f32>, tensor<i32>) -> (tensor<f32>, tensor<i32>)\n     reducer(%5: tensor<f32>, %6: tensor<f32>) (%7: tensor<i32>, %8: tensor<i32>)  {\n      %9 = stablehlo.compare GT, %5, %6, FLOAT : (tensor<f32>, tensor<f32>) -> tensor<i1>\n      %10 = stablehlo.compare NE, %5, %5, FLOAT : (tensor<f32>, tensor<f32>) -> tensor<i1>\n      %11 = stablehlo.or %9, %10 : tensor<i1>\n      %12 = stablehlo.compare EQ, %5, %6, FLOAT : (tensor<f32>, tensor<f32>) -> tensor<i1>\n      %13 = stablehlo.compare LT, %7, %8, SIGNED : (tensor<i32>, tensor<i32>) -> tensor<i1>\n      %14 = stablehlo.and %12, %13 : tensor<i1>\n      %15 = stablehlo.or %11, %14 : tensor<i1>\n      %16 = stablehlo.select %11, %5, %6 : tensor<i1>, tensor<f32>\n      %17 = stablehlo.select %15, %7, %8 : tensor<i1>, tensor<i32>\n      stablehlo.return %16, %17 : tensor<f32>, tensor<i32>\n    }\n    return %4#1 : tensor<i32>\n  }\n}\n"},{"name":"argmin","text":"module {\n  func.func public @main(%0: tensor<3xf32>) -> (tensor<i32>) {\n    %1 = call @argmin(%0) : (tensor<3xf32>) -> tensor<i32>\n    return %1 : tensor<i32>\n  }\n  func.func private @argmin(%0: tensor<3xf32>) -> tensor<i32> {\n    %1 = stablehlo.iota dim = 0 : tensor<3xi32>\n    %2 = stablehlo.constant dense<0x7F800000> : tensor<f32>\n    %3 = stablehlo.constant dense<0> : tensor<i32>\n    %4:2 = stablehlo.reduce(%0 init: %2), (%1 init: %3) across dimensions = [0] : (tensor<3xf32>, tensor<3xi32>, tensor<f32>, tensor<i32>) -> (tensor<f32>, tensor<i32>)\n     reducer(%5: tensor<f32>, %6: tensor<f32>) (%7: tensor<i32>, %8: tensor<i32>)  {\n      %9 = stablehlo.compare LT, %5, %6, FLOAT : (tensor<f32>, tensor<f32>) -> tensor<i1>\n      %10 = stablehlo.compare NE, %5, %5, FLOAT : (tensor<f32>, tensor<f32>) -> tensor<i1>\n      %11 = stablehlo.or %9, %10 : tensor<i1>\n      %12 = stablehlo.compare EQ, %5, %6, FLOAT : (tensor<f32>, tensor<f32>) -> tensor<i1>\n      %13 = stablehlo.compare LT, %7, %8, SIGNED : (tensor<i32>, tensor<i32>) -> tensor<i1>\n      %14 = stablehlo.and %12, %13 : tensor<i1>\n      %15 = stablehlo.or %11, %14 : tensor<i1>\n      %16 = stablehlo.select %11, %5, %6 : tensor<i1>, tensor<f32>\n      %17 = stablehlo.select %15, %7, %8 : tensor<i1>, tensor<i32>\n      stablehlo.return %16, %17 : tensor<f32>, tensor<i32>\n    }\n    return %4#1 : tensor<i32>\n  }\n}\n"},{"name":"binary_add","text":"module {\n  func.func public @main(%0: tensor<3xf32>, %1: tensor<3xf32>) -> (tensor<3xf32>) {\n    %2 = stablehlo.add %0, %1 : tensor<3xf32>\n    return %2 : tensor<3xf32>\n  }\n}\n"},{"name":"binary_and","text":"module {\n  func.func public @main(%0: tensor<3xi32>, %1: tensor<3xi32>) -> (tensor<3xi32>) {\n    %2 = stablehlo.and %0, %1 : tensor<3xi32>\n    return %2 : tensor<3xi32>\n  }\n}\n"},{"name":"binary_atan2","text":"module {\n  func.func public @main(%0: tensor<3xf32>, %1: tensor<3xf32>) -> (tensor<3xf32>) {\n    %2 = stablehlo.atan2 %0, %1 : tensor<3xf32>\n    return %2 : tensor<3xf32>\n  }\n}\n"},{"name":"binary_div","text":"module {\n  func.func public @main(%0: tensor<3xf32>, %1: tensor<3xf32>) -> (tensor<3xf32>) {\n    %2 = stablehlo.divide %0, %1 : tensor<3xf32>\n    return %2 : tensor<3xf32>\n  }\n}\n"},{"name":"binary_max","text":"module {\n  func.func public @main(%0: tensor<3xf32>, %1: tensor<3xf32>) -> (tensor<3xf32>) {\n    %2 = stablehlo.maximum %0, %1 : tensor<3xf32>\n    return %2 : tensor<3xf32>\n  }\n}\n"},{"name":"binary_min","text":"module {\n  func.func public @main(%0: tensor<3xf32>, %1: tensor<3xf32>) -> (tensor<3xf32>) {\n    %2 = stablehlo.minimum %0, %1 : tensor<3xf32>\n    return %2 : tensor<3xf32>\n  }\n}\n"},{"name":"binary_mul","text":"module {\n  func.func public @main(%0: tensor<3xf32>, %1: tensor<3xf32>) -> (tensor<3xf32>) {\n    %2 = stablehlo.multiply %0, %1 : tensor<3xf32>\n    return %2 : tensor<3xf32>\n  }\n}\n"},{"name":"binary_mulhi","text":"module {\n  func.func public @main(%0: tensor<3xi32>, %1: tensor<3xi32>) -> (tensor<3xi32>) {\n    %2 = chlo.mulhi %0, %1 : tensor<3xi32>, tensor<3xi32> -> tensor<3xi32>\n    return %2 : tensor<3xi32>\n  }\n}\n"},{"name":"binary_nextafter","text":"module {\n  func.func public @main(%0: tensor<3xf32>, %1: tensor<3xf32>) -> (tensor<3xf32>) {\n    %2 = chlo.next_after %0, %1 : tensor<3xf32>, tensor<3xf32> -> tensor<3xf32>\n    return %2 : tensor<3xf32>\n  }\n}\n"},{"name":"binary_or","text":"module {\n  func.func public @main(%0: tensor<3xi32>, %1: tensor<3xi32>) -> (tensor<3xi32>) {\n    %2 = stablehlo.or %0, %1 : tensor<3xi32>\n    return %2 : tensor<3xi32>\n  }\n}\n"},{"name":"binary_pow","text":"module {\n  func.func public @main(%0: tensor<3xf32>, %1: tensor<3xf32>) -> (tensor<3xf32>) {\n    %2 = stablehlo.power %0, %1 : tensor<3xf32>\n    return %2 : tensor<3xf32>\n  }\n}\n"},{"name":"binary_rem","text":"module {\n  func.func public @main(%0: tensor<3xf32>, %1: tensor<3xf32>) -> (tensor<3xf32>) {\n    %2 = stablehlo.remainder %0, %1 : tensor<3xf32>\n    return %2 : tensor<3xf32>\n  }\n}\n"},{"name":"binary_shift_left","text":"module {\n  func.func public @main(%0: tensor<3xi32>, %1: tensor<3xi32>) -> (tensor<3xi32>) {\n    %2 = stablehlo.shift_left %0, %1 : tensor<3xi32>\n    return %2 : tensor<3xi32>\n  }\n}\n"},{"name":"binary_shift_right_arithmetic","text":"module {\n  func.func public @main(%0: tensor<3xi32>, %1: tensor<3xi32>) -> (tensor<3xi32>) {\n    %2 = stablehlo.shift_right_arithmetic %0, %1 : tensor<3xi32>\n    return %2 : tensor<3xi32>\n  }\n}\n"},{"name":"binary_shift_right_logical","text":"module {\n  func.func public @main(%0: tensor<3xi32>, %1: tensor<3xi32>) -> (tensor<3xi32>) {\n    %2 = stablehlo.shift_right_logical %0, %1 : tensor<3xi32>\n    return %2 : tensor<3xi32>\n  }\n}\n"},{"name":"binary_sub","text":"module {\n  func.func public @main(%0: tensor<3xf32>, %1: tensor<3xf32>) -> (tensor<3xf32>) {\n    %2 = stablehlo.subtract %0, %1 : tensor<3xf32>\n    return %2 : tensor<3xf32>\n  }\n}\n"},{"name":"binary_xor","text":"module {\n  func.func public @main(%0: tensor<3xi32>, %1: tensor<3xi32>) -> (tensor<3xi32>) {\n    %2 = stablehlo.xor %0, %1 : tensor<3xi32>\n    return %2 : tensor<3xi32>\n  }\n}\n"},{"name":"bitcast_f32_to_i32","text":"module {\n  func.func public @main(%0: tensor<3xf32>) -> (tensor<3xi32>) {\n    %1 = stablehlo.bitcast_convert %0 : (tensor<3xf32>) -> tensor<3xi32>\n    return %1 : tensor<3xi32>\n  }\n}\n"},{"name":"clamp","text":"module {\n  func.func public @main(%0: tensor<3xf32>, %1: tensor<3xf32>, %2: tensor<3xf32>) -> (tensor<3xf32>) {\n    %3 = stablehlo.clamp %0, %1, %2 : tensor<3xf32>\n    return %3 : tensor<3xf32>\n  }\n}\n"},{"name":"compare_eq","text":"module {\n  func.func public @main(%0: tensor<3xf32>, %1: tensor<3xf32>) -> (tensor<3xi1>) {\n    %2 = stablehlo.compare EQ, %0, %1, FLOAT : (tensor<3xf32>, tensor<3xf32>) -> tensor<3xi1>\n    return %2 : tensor<3xi1>\n  }\n}\n"},{"name":"compare_eq_bool","text":"module {\n  func.func public @main(%0: tensor<3xi1>, %1: tensor<3xi1>) -> (tensor<3xi1>) {\n    %2 = stablehlo.compare EQ, %0, %1, UNSIGNED : (tensor<3xi1>, tensor<3xi1>) -> tensor<3xi1>\n    return %2 : tensor<3xi1>\n  }\n}\n"},{"name":"compare_eq_i32","text":"module {\n  func.func public @main(%0: tensor<3xi32>, %1: tensor<3xi32>) -> (tensor<3xi1>) {\n    %2 = stablehlo.compare EQ, %0, %1, SIGNED : (tensor<3xi32>, tensor<3xi32>) -> tensor<3xi1>\n    return %2 : tensor<3xi1>\n  }\n}\n"},{"name":"compare_eq_to","text":"module {\n  func.func public @main(%0: tensor<3xf32>, %1: tensor<3xf32>) -> (tensor<3xi1>) {\n    %2 = stablehlo.compare EQ, %0, %1, TOTALORDER : (tensor<3xf32>, tensor<3xf32>) -> tensor<3xi1>\n    return %2 : tensor<3xi1>\n  }\n}\n"},{"name":"compare_ge","text":"module {\n  func.func public @main(%0: tensor<3xf32>, %1: tensor<3xf32>) -> (tensor<3xi1>) {\n    %2 = stablehlo.compare GE, %0, %1, FLOAT : (tensor<3xf32>, tensor<3xf32>) -> tensor<3xi1>\n    return %2 : tensor<3xi1>\n  }\n}\n"},{"name":"compare_gt","text":"module {\n  func.func public @main(%0: tensor<3xf32>, %1: tensor<3xf32>) -> (tensor<3xi1>) {\n    %2 = stablehlo.compare GT, %0, %1, FLOAT : (tensor<3xf32>, tensor<3xf32>) -> tensor<3xi1>\n    return %2 : tensor<3xi1>\n  }\n}\n"},{"name":"compare_le","text":"module {\n  func.func public @main(%0: tensor<3xf32>, %1: tensor<3xf32>) -> (tensor<3xi1>) {\n    %2 = stablehlo.compare LE, %0, %1, FLOAT : (tensor<3xf32>, tensor<3xf32>) -> tensor<3xi1>\n    return %2 : tensor<3xi1>\n  }\n}\n"},{"name":"compare_le_to","text":"module {\n  func.func public @main(%0: tensor<3xf32>, %1: tensor<3xf32>) -> (tensor<3xi1>) {\n    %2 = stablehlo.compare LE, %0, %1, TOTALORDER : (tensor<3xf32>, tensor<3xf32>) -> tensor<3xi1>\n    return %2 : tensor<3xi1>\n  }\n}\n"},{"name":"compare_lt","text":"module {\n  func.func public @main(%0: tensor<3xf32>, %1: tensor<3xf32>) -> (tensor<3xi1>) {\n    %2 = stablehlo.compare LT, %0, %1, FLOAT : (tensor<3xf32>, tensor<3xf32>) -> tensor<3xi1>\n    return %2 : tensor<3xi1>\n  }\n}\n"},{"name":"compare_lt_to","text":"module {\n  func.func public @main(%0: tensor<3xf32>, %1: tensor<3xf32>) -> (tensor<3xi1>) {\n    %2 = stablehlo.compare LT, %0, %1, TOTALORDER : (tensor<3xf32>, tensor<3xf32>) -> tensor<3xi1>\n    return %2 : tensor<3xi1>\n  }\n}\n"},{"name":"compare_ne","text":"module {\n  func.func public @main(%0: tensor<3xf32>, %1: tensor<3xf32>) -> (tensor<3xi1>) {\n    %2 = stablehlo.compare NE, %0, %1, FLOAT : (tensor<3xf32>, tensor<3xf32>) -> tensor<3xi1>\n    return %2 : tensor<3xi1>\n  }\n}\n"},{"name":"const_and_arg","text":"module {\n  func.func public @main(%0: tensor<2xf32>) -> (tensor<f32>, tensor<2xf32>) {\n    %1 = stablehlo.constant dense<2.000000e+00> : tensor<f32>\n    return %1, %0 : tensor<f32>, tensor<2xf32>\n  }\n}\n"},{"name":"const_mat_f32","text":"module {\n  func.func public @main() -> (tensor<2x2xf32>) {\n    %0 = stablehlo.constant dense<[[1.000000e+00, 2.000000e+00], [3.000000e+00, 4.000000e+00]]> : tensor<2x2xf32>\n    return %0 : tensor<2x2xf32>\n  }\n}\n"},{"name":"const_neg_zero","text":"module {\n  func.func public @main() -> (tensor<3xf32>) {\n    %0 = stablehlo.constant dense<[-0.000000e+00, 1.500000e+00, -2.250000e+00]> : tensor<3xf32>\n    return %0 : tensor<3xf32>\n  }\n}\n"},{"name":"const_scalar_bool","text":"module {\n  func.func public @main() -> (tensor<i1>) {\n    %0 = stablehlo.constant dense<true> : tensor<i1>\n    return %0 : tensor<i1>\n  }\n}\n"},{"name":"const_scalar_f32","text":"module {\n  func.func public @main() -> (tensor<f32>) {\n    %0 = stablehlo.constant dense<2.000000e+00> : tensor<f32>\n    return %0 : tensor<f32>\n  }\n}\n"},{"name":"const_scalar_i32","text":"module {\n  func.func public @main() -> (tensor<i32>) {\n    %0 = stablehlo.constant dense<7> : tensor<i32>\n    return %0 : tensor<i32>\n  }\n}\n"},{"name":"const_splat_f32","text":"module {\n  func.func public @main() -> (tensor<2xf32>) {\n    %0 = stablehlo.constant dense<2.000000e+00> : tensor<2xf32>\n    return %0 : tensor<2xf32>\n  }\n}\n"},{"name":"const_splat_i32","text":"module {\n  func.func public @main() -> (tensor<3xi32>) {\n    %0 = stablehlo.constant dense<5> : tensor<3xi32>\n    return %0 : tensor<3xi32>\n  }\n}\n"},{"name":"const_vec_f32","text":"module {\n  func.func public @main() -> (tensor<3xf32>) {\n    %0 = stablehlo.constant dense<[1.000000e+00, 2.000000e+00, 3.000000e+00]> : tensor<3xf32>\n    return %0 : tensor<3xf32>\n  }\n}\n"},{"name":"const_vec_i32","text":"module {\n  func.func public @main() -> (tensor<3xi32>) {\n    %0 = stablehlo.constant dense<[1, 2, 3]> : tensor<3xi32>\n    return %0 : tensor<3xi32>\n  }\n}\n"},{"name":"conv","text":"module {\n  func.func public @main(%0: tensor<1x1x5xf32>, %1: tensor<1x1x3xf32>) -> (tensor<1x1x3xf32>) {\n    %2 = stablehlo.convolution(%0, %1) dim_numbers = [b, f, 0]x[o, i, 0]->[b, f, 0], window = {stride = [1], pad = [[0, 0]], lhs_dilate = [1], rhs_dilate = [1], reverse = [false]} {batch_group_count = 1 : i64, feature_group_count = 1 : i64, precision_config = [#stablehlo<precision DEFAULT>, #stablehlo<precision DEFAULT>]} : (tensor<1x1x5xf32>, tensor<1x1x3xf32>) -> tensor<1x1x3xf32>\n    return %2 : tensor<1x1x3xf32>\n  }\n}\n"},{"name":"convert_bool_to_i32","text":"module {\n  func.func public @main(%0: tensor<3xi1>) -> (tensor<3xi32>) {\n    %1 = stablehlo.convert %0 : (tensor<3xi1>) -> tensor<3xi32>\n    return %1 : tensor<3xi32>\n  }\n}\n"},{"name":"convert_f32_to_bool","text":"module {\n  func.func public @main(%0: tensor<3xf32>) -> (tensor<3xi1>) {\n    %1 = stablehlo.constant dense<0.000000e+00> : tensor<f32>\n    %2 = stablehlo.broadcast_in_dim %1, dims = [] : (tensor<f32>) -> tensor<3xf32>\n    %3 = stablehlo.compare NE, %0, %2, FLOAT : (tensor<3xf32>, tensor<3xf32>) -> tensor<3xi1>\n    %4 = stablehlo.convert %3 : tensor<3xi1>\n    return %4 : tensor<3xi1>\n  }\n}\n"},{"name":"convert_f32_to_i32","text":"module {\n  func.func public @main(%0: tensor<3xf32>) -> (tensor<3xi32>) {\n    %1 = stablehlo.convert %0 : (tensor<3xf32>) -> tensor<3xi32>\n    return %1 : tensor<3xi32>\n  }\n}\n"},{"name":"convert_i32_to_f32","text":"module {\n  func.func public @main(%0: tensor<3xi32>) -> (tensor<3xf32>) {\n    %1 = stablehlo.convert %0 : (tensor<3xi32>) -> tensor<3xf32>\n    return %1 : tensor<3xf32>\n  }\n}\n"},{"name":"cumlogsumexp","text":"module {\n  func.func public @main(%0: tensor<3xf32>) -> (tensor<3xf32>) {\n    %1 = call @cumlogsumexp(%0) : (tensor<3xf32>) -> tensor<3xf32>\n    return %1 : tensor<3xf32>\n  }\n  func.func private @cumlogsumexp(%0: tensor<3xf32>) -> tensor<3xf32> {\n    %2 = stablehlo.constant dense<0xFF800000> : tensor<f32>\n    %1 = \"stablehlo.reduce_window\"(%0, %2) <{base_dilations = array<i64: 1>, padding = dense<[[2, 0]]> : tensor<1x2xi64>, window_dilations = array<i64: 1>, window_dimensions = array<i64: 3>, window_strides = array<i64: 1>}> ({\n    ^bb0(%3: tensor<f32>, %4: tensor<f32>):\n      %5 = stablehlo.maximum %3, %4 : tensor<f32>\n      %6 = stablehlo.subtract %3, %4 : tensor<f32>\n      %7 = stablehlo.compare NE, %6, %6, FLOAT : (tensor<f32>, tensor<f32>) -> tensor<i1>\n      %8 = stablehlo.add %3, %4 : tensor<f32>\n      %9 = stablehlo.abs %6 : tensor<f32>\n      %10 = stablehlo.negate %9 : tensor<f32>\n      %11 = stablehlo.exponential %10 : tensor<f32>\n      %12 = stablehlo.log_plus_one %11 : tensor<f32>\n      %13 = stablehlo.add %5, %12 : tensor<f32>\n      %14 = stablehlo.select %7, %8, %13 : tensor<i1>, tensor<f32>\n      stablehlo.return %14 : tensor<f32>\n    }) : (tensor<3xf32>, tensor<f32>) -> tensor<3xf32>\n    return %1 : tensor<3xf32>\n  }\n}\n"},{"name":"cummax","text":"module {\n  func.func public @main(%0: tensor<3xf32>) -> (tensor<3xf32>) {\n    %1 = call @cummax(%0) : (tensor<3xf32>) -> tensor<3xf32>\n    return %1 : tensor<3xf32>\n  }\n  func.func private @cummax(%0: tensor<3xf32>) -> tensor<3xf32> {\n    %2 = stablehlo.constant dense<0xFF800000> : tensor<f32>\n    %1 = stablehlo.broadcast_in_dim %2, dims = [] : (tensor<f32>) -> tensor<f32>\n    %3 = \"stablehlo.reduce_window\"(%0, %1) <{base_dilations = array<i64: 1>, padding = dense<[[2, 0]]> : tensor<1x2xi64>, window_dilations = array<i64: 1>, window_dimensions = array<i64: 3>, window_strides = array<i64: 1>}> ({\n    ^bb0(%4: tensor<f32>, %5: tensor<f32>):\n      %6 = stablehlo.maximum %4, %5 : tensor<f32>\n      stablehlo.return %6 : tensor<f32>\n    }) : (tensor<3xf32>, tensor<f32>) -> tensor<3xf32>\n    return %3 : tensor<3xf32>\n  }\n}\n"},{"name":"cummin","text":"module {\n  func.func public @main(%0: tensor<3xf32>) -> (tensor<3xf32>) {\n    %1 = call @cummin(%0) : (tensor<3xf32>) -> tensor<3xf32>\n    return %1 : tensor<3xf32>\n  }\n  func.func private @cummin(%0: tensor<3xf32>) -> tensor<3xf32> {\n    %2 = stablehlo.constant dense<0x7F800000> : tensor<f32>\n    %1 = stablehlo.broadcast_in_dim %2, dims = [] : (tensor<f32>) -> tensor<f32>\n    %3 = \"stablehlo.reduce_window\"(%0, %1) <{base_dilations = array<i64: 1>, padding = dense<[[2, 0]]> : tensor<1x2xi64>, window_dilations = array<i64: 1>, window_dimensions = array<i64: 3>, window_strides = array<i64: 1>}> ({\n    ^bb0(%4: tensor<f32>, %5: tensor<f32>):\n      %6 = stablehlo.minimum %4, %5 : tensor<f32>\n      stablehlo.return %6 : tensor<f32>\n    }) : (tensor<3xf32>, tensor<f32>) -> tensor<3xf32>\n    return %3 : tensor<3xf32>\n  }\n}\n"},{"name":"cumprod","text":"module {\n  func.func public @main(%0: tensor<3xf32>) -> (tensor<3xf32>) {\n    %1 = call @cumprod(%0) : (tensor<3xf32>) -> tensor<3xf32>\n    return %1 : tensor<3xf32>\n  }\n  func.func private @cumprod(%0: tensor<3xf32>) -> tensor<3xf32> {\n    %2 = stablehlo.constant dense<1.000000e+00> : tensor<f32>\n    %1 = \"stablehlo.reduce_window\"(%0, %2) <{base_dilations = array<i64: 1>, padding = dense<[[2, 0]]> : tensor<1x2xi64>, window_dilations = array<i64: 1>, window_dimensions = array<i64: 3>, window_strides = array<i64: 1>}> ({\n    ^bb0(%3: tensor<f32>, %4: tensor<f32>):\n      %5 = stablehlo.multiply %3, %4 : tensor<f32>\n      stablehlo.return %5 : tensor<f32>\n    }) : (tensor<3xf32>, tensor<f32>) -> tensor<3xf32>\n    return %1 : tensor<3xf32>\n  }\n}\n"},{"name":"cumsum","text":"module {\n  func.func public @main(%0: tensor<3xf32>) -> (tensor<3xf32>) {\n    %1 = call @cumsum(%0) : (tensor<3xf32>) -> tensor<3xf32>\n    return %1 : tensor<3xf32>\n  }\n  func.func private @cumsum(%0: tensor<3xf32>) -> tensor<3xf32> {\n    %2 = stablehlo.constant dense<0.000000e+00> : tensor<f32>\n    %1 = stablehlo.broadcast_in_dim %2, dims = [] : (tensor<f32>) -> tensor<f32>\n    %3 = \"stablehlo.reduce_window\"(%0, %1) <{base_dilations = array<i64: 1>, padding = dense<[[2, 0]]> : tensor<1x2xi64>, window_dilations = array<i64: 1>, window_dimensions = array<i64: 3>, window_strides = array<i64: 1>}> ({\n    ^bb0(%4: tensor<f32>, %5: tensor<f32>):\n      %6 = stablehlo.add %4, %5 : tensor<f32>\n      stablehlo.return %6 : tensor<f32>\n    }) : (tensor<3xf32>, tensor<f32>) -> tensor<3xf32>\n    return %3 : tensor<3xf32>\n  }\n}\n"},{"name":"dot_general","text":"module {\n  func.func public @main(%0: tensor<2x3xf32>, %1: tensor<3x4xf32>) -> (tensor<2x4xf32>) {\n    %2 = stablehlo.dot_general %0, %1, contracting_dims = [1] x [0], precision = [DEFAULT, DEFAULT] : (tensor<2x3xf32>, tensor<3x4xf32>) -> tensor<2x4xf32>\n    return %2 : tensor<2x4xf32>\n  }\n}\n"},{"name":"dot_general_batch","text":"module {\n  func.func public @main(%0: tensor<2x3x4xf32>, %1: tensor<2x4x5xf32>) -> (tensor<2x3x5xf32>) {\n    %2 = stablehlo.dot_general %0, %1, batching_dims = [0] x [0], contracting_dims = [2] x [1], precision = [DEFAULT, DEFAULT] : (tensor<2x3x4xf32>, tensor<2x4x5xf32>) -> tensor<2x3x5xf32>\n    return %2 : tensor<2x3x5xf32>\n  }\n}\n"},{"name":"dup_out","text":"module {\n  func.func public @main(%0: tensor<2xf32>) -> (tensor<2xf32>, tensor<2xf32>) {\n    return %0, %0 : tensor<2xf32>, tensor<2xf32>\n  }\n}\n"},{"name":"dynamic_slice","text":"module {\n  func.func public @main(%0: tensor<6xf32>, %1: tensor<i32>) -> (tensor<3xf32>) {\n    %2 = stablehlo.dynamic_slice %0, %1, sizes = [3] : (tensor<6xf32>, tensor<i32>) -> tensor<3xf32>\n    return %2 : tensor<3xf32>\n  }\n}\n"},{"name":"dynamic_update_slice","text":"module {\n  func.func public @main(%0: tensor<6xf32>, %1: tensor<2xf32>, %2: tensor<i32>) -> (tensor<6xf32>) {\n    %3 = stablehlo.dynamic_update_slice %0, %1, %2 : (tensor<6xf32>, tensor<2xf32>, tensor<i32>) -> tensor<6xf32>\n    return %3 : tensor<6xf32>\n  }\n}\n"},{"name":"empty","text":"module {\n  func.func public @main() -> (tensor<3xf32>) {\n    %0 = stablehlo.constant dense<0.000000e+00> : tensor<f32>\n    %1 = stablehlo.broadcast_in_dim %0, dims = [] : (tensor<f32>) -> tensor<3xf32>\n    return %1 : tensor<3xf32>\n  }\n}\n"},{"name":"gather","text":"module {\n  func.func public @main(%0: tensor<5x3xf32>, %1: tensor<2x1xi32>) -> (tensor<2x3xf32>) {\n    %2 = \"stablehlo.gather\"(%0, %1) <{dimension_numbers = #stablehlo.gather<offset_dims = [1], collapsed_slice_dims = [0], start_index_map = [0], index_vector_dim = 1>, indices_are_sorted = false, slice_sizes = array<i64: 1, 3>}> : (tensor<5x3xf32>, tensor<2x1xi32>) -> tensor<2x3xf32>\n    return %2 : tensor<2x3xf32>\n  }\n}\n"},{"name":"identity_scalar","text":"module {\n  func.func public @main(%0: tensor<f32>) -> (tensor<f32>) {\n    return %0 : tensor<f32>\n  }\n}\n"},{"name":"identity_vec","text":"module {\n  func.func public @main(%0: tensor<3xf32>) -> (tensor<3xf32>) {\n    return %0 : tensor<3xf32>\n  }\n}\n"},{"name":"multi_out","text":"module {\n  func.func public @main(%0: tensor<2xf32>, %1: tensor<3xi32>) -> (tensor<2xf32>, tensor<3xi32>) {\n    return %0, %1 : tensor<2xf32>, tensor<3xi32>\n  }\n}\n"},{"name":"optimization_barrier","text":"module {\n  func.func public @main(%0: tensor<3xf32>) -> (tensor<3xf32>) {\n    %1 = stablehlo.optimization_barrier %0 : tensor<3xf32>\n    return %1 : tensor<3xf32>\n  }\n}\n"},{"name":"platform_index","text":"module {\n  func.func public @main() -> (tensor<i32>) {\n    %0 = stablehlo.constant dense<0> : tensor<i32>\n    return %0 : tensor<i32>\n  }\n}\n"},{"name":"reduce_and","text":"module {\n  func.func public @main(%0: tensor<3xi32>) -> (tensor<i32>) {\n    %1 = stablehlo.constant dense<-1> : tensor<i32>\n    %2 = stablehlo.reduce(%0 init: %1) applies stablehlo.and across dimensions = [0] : (tensor<3xi32>, tensor<i32>) -> tensor<i32>\n    return %2 : tensor<i32>\n  }\n}\n"},{"name":"reduce_max","text":"module {\n  func.func public @main(%0: tensor<3xf32>) -> (tensor<f32>) {\n    %1 = stablehlo.constant dense<0xFF800000> : tensor<f32>\n    %2 = stablehlo.reduce(%0 init: %1) applies stablehlo.maximum across dimensions = [0] : (tensor<3xf32>, tensor<f32>) -> tensor<f32>\n    return %2 : tensor<f32>\n  }\n}\n"},{"name":"reduce_min","text":"module {\n  func.func public @main(%0: tensor<3xf32>) -> (tensor<f32>) {\n    %1 = stablehlo.constant dense<0x7F800000> : tensor<f32>\n    %2 = stablehlo.reduce(%0 init: %1) applies stablehlo.minimum across dimensions = [0] : (tensor<3xf32>, tensor<f32>) -> tensor<f32>\n    return %2 : tensor<f32>\n  }\n}\n"},{"name":"reduce_or","text":"module {\n  func.func public @main(%0: tensor<3xi32>) -> (tensor<i32>) {\n    %1 = stablehlo.constant dense<0> : tensor<i32>\n    %2 = stablehlo.reduce(%0 init: %1) applies stablehlo.or across dimensions = [0] : (tensor<3xi32>, tensor<i32>) -> tensor<i32>\n    return %2 : tensor<i32>\n  }\n}\n"},{"name":"reduce_precision","text":"module {\n  func.func public @main(%0: tensor<3xf32>) -> (tensor<3xf32>) {\n    %1 = stablehlo.reduce_precision %0, format = e8m10 : tensor<3xf32>\n    return %1 : tensor<3xf32>\n  }\n}\n"},{"name":"reduce_prod","text":"module {\n  func.func public @main(%0: tensor<3xf32>) -> (tensor<f32>) {\n    %1 = stablehlo.constant dense<1.000000e+00> : tensor<f32>\n    %2 = stablehlo.reduce(%0 init: %1) applies stablehlo.multiply across dimensions = [0] : (tensor<3xf32>, tensor<f32>) -> tensor<f32>\n    return %2 : tensor<f32>\n  }\n}\n"},{"name":"reduce_sum","text":"module {\n  func.func public @main(%0: tensor<3xf32>) -> (tensor<f32>) {\n    %1 = stablehlo.constant dense<0.000000e+00> : tensor<f32>\n    %2 = stablehlo.reduce(%0 init: %1) applies stablehlo.add across dimensions = [0] : (tensor<3xf32>, tensor<f32>) -> tensor<f32>\n    return %2 : tensor<f32>\n  }\n}\n"},{"name":"reduce_window_max","text":"module {\n  func.func public @main(%0: tensor<5xf32>) -> (tensor<4xf32>) {\n    %1 = stablehlo.constant dense<0xFF800000> : tensor<f32>\n    %2 = stablehlo.broadcast_in_dim %1, dims = [] : (tensor<f32>) -> tensor<f32>\n    %3 = \"stablehlo.reduce_window\"(%0, %2) <{base_dilations = array<i64: 1>, padding = dense<0> : tensor<1x2xi64>, window_dilations = array<i64: 1>, window_dimensions = array<i64: 2>, window_strides = array<i64: 1>}> ({\n    ^bb0(%4: tensor<f32>, %5: tensor<f32>):\n      %6 = stablehlo.maximum %4, %5 : tensor<f32>\n      stablehlo.return %6 : tensor<f32>\n    }) : (tensor<5xf32>, tensor<f32>) -> tensor<4xf32>\n    return %3 : tensor<4xf32>\n  }\n}\n"},{"name":"reduce_window_min","text":"module {\n  func.func public @main(%0: tensor<5xf32>) -> (tensor<4xf32>) {\n    %1 = stablehlo.constant dense<0x7F800000> : tensor<f32>\n    %2 = stablehlo.broadcast_in_dim %1, dims = [] : (tensor<f32>) -> tensor<f32>\n    %3 = \"stablehlo.reduce_window\"(%0, %2) <{base_dilations = array<i64: 1>, padding = dense<0> : tensor<1x2xi64>, window_dilations = array<i64: 1>, window_dimensions = array<i64: 2>, window_strides = array<i64: 1>}> ({\n    ^bb0(%4: tensor<f32>, %5: tensor<f32>):\n      %6 = stablehlo.minimum %4, %5 : tensor<f32>\n      stablehlo.return %6 : tensor<f32>\n    }) : (tensor<5xf32>, tensor<f32>) -> tensor<4xf32>\n    return %3 : tensor<4xf32>\n  }\n}\n"},{"name":"reduce_window_sum","text":"module {\n  func.func public @main(%0: tensor<5xf32>) -> (tensor<4xf32>) {\n    %1 = stablehlo.constant dense<0.000000e+00> : tensor<f32>\n    %2 = stablehlo.broadcast_in_dim %1, dims = [] : (tensor<f32>) -> tensor<f32>\n    %3 = \"stablehlo.reduce_window\"(%0, %2) <{base_dilations = array<i64: 1>, padding = dense<0> : tensor<1x2xi64>, window_dilations = array<i64: 1>, window_dimensions = array<i64: 2>, window_strides = array<i64: 1>}> ({\n    ^bb0(%4: tensor<f32>, %5: tensor<f32>):\n      %6 = stablehlo.add %4, %5 : tensor<f32>\n      stablehlo.return %6 : tensor<f32>\n    }) : (tensor<5xf32>, tensor<f32>) -> tensor<4xf32>\n    return %3 : tensor<4xf32>\n  }\n}\n"},{"name":"reduce_xor","text":"module {\n  func.func public @main(%0: tensor<3xi32>) -> (tensor<i32>) {\n    %1 = stablehlo.constant dense<0> : tensor<i32>\n    %2 = stablehlo.reduce(%0 init: %1) applies stablehlo.xor across dimensions = [0] : (tensor<3xi32>, tensor<i32>) -> tensor<i32>\n    return %2 : tensor<i32>\n  }\n}\n"},{"name":"scatter","text":"module {\n  func.func public @main(%0: tensor<5x3xf32>, %1: tensor<2x1xi32>, %2: tensor<2x3xf32>) -> (tensor<5x3xf32>) {\n    %3 = \"stablehlo.scatter\"(%0, %1, %2) <{indices_are_sorted = false, scatter_dimension_numbers = #stablehlo.scatter<update_window_dims = [1], inserted_window_dims = [0], scatter_dims_to_operand_dims = [0], index_vector_dim = 1>, unique_indices = false}> ({\n    ^bb0(%4: tensor<f32>, %5: tensor<f32>):\n      stablehlo.return %5 : tensor<f32>\n    }) : (tensor<5x3xf32>, tensor<2x1xi32>, tensor<2x3xf32>) -> tensor<5x3xf32>\n    return %3 : tensor<5x3xf32>\n  }\n}\n"},{"name":"scatter_add","text":"module {\n  func.func public @main(%0: tensor<5x3xf32>, %1: tensor<2x1xi32>, %2: tensor<2x3xf32>) -> (tensor<5x3xf32>) {\n    %3 = \"stablehlo.scatter\"(%0, %1, %2) <{indices_are_sorted = false, scatter_dimension_numbers = #stablehlo.scatter<update_window_dims = [1], inserted_window_dims = [0], scatter_dims_to_operand_dims = [0], index_vector_dim = 1>, unique_indices = false}> ({\n    ^bb0(%4: tensor<f32>, %5: tensor<f32>):\n      %6 = stablehlo.add %4, %5 : tensor<f32>\n      stablehlo.return %6 : tensor<f32>\n    }) : (tensor<5x3xf32>, tensor<2x1xi32>, tensor<2x3xf32>) -> tensor<5x3xf32>\n    return %3 : tensor<5x3xf32>\n  }\n}\n"},{"name":"scatter_max","text":"module {\n  func.func public @main(%0: tensor<5x3xf32>, %1: tensor<2x1xi32>, %2: tensor<2x3xf32>) -> (tensor<5x3xf32>) {\n    %3 = \"stablehlo.scatter\"(%0, %1, %2) <{indices_are_sorted = false, scatter_dimension_numbers = #stablehlo.scatter<update_window_dims = [1], inserted_window_dims = [0], scatter_dims_to_operand_dims = [0], index_vector_dim = 1>, unique_indices = false}> ({\n    ^bb0(%4: tensor<f32>, %5: tensor<f32>):\n      %6 = stablehlo.maximum %4, %5 : tensor<f32>\n      stablehlo.return %6 : tensor<f32>\n    }) : (tensor<5x3xf32>, tensor<2x1xi32>, tensor<2x3xf32>) -> tensor<5x3xf32>\n    return %3 : tensor<5x3xf32>\n  }\n}\n"},{"name":"scatter_min","text":"module {\n  func.func public @main(%0: tensor<5x3xf32>, %1: tensor<2x1xi32>, %2: tensor<2x3xf32>) -> (tensor<5x3xf32>) {\n    %3 = \"stablehlo.scatter\"(%0, %1, %2) <{indices_are_sorted = false, scatter_dimension_numbers = #stablehlo.scatter<update_window_dims = [1], inserted_window_dims = [0], scatter_dims_to_operand_dims = [0], index_vector_dim = 1>, unique_indices = false}> ({\n    ^bb0(%4: tensor<f32>, %5: tensor<f32>):\n      %6 = stablehlo.minimum %4, %5 : tensor<f32>\n      stablehlo.return %6 : tensor<f32>\n    }) : (tensor<5x3xf32>, tensor<2x1xi32>, tensor<2x3xf32>) -> tensor<5x3xf32>\n    return %3 : tensor<5x3xf32>\n  }\n}\n"},{"name":"scatter_mul","text":"module {\n  func.func public @main(%0: tensor<5x3xf32>, %1: tensor<2x1xi32>, %2: tensor<2x3xf32>) -> (tensor<5x3xf32>) {\n    %3 = \"stablehlo.scatter\"(%0, %1, %2) <{indices_are_sorted = false, scatter_dimension_numbers = #stablehlo.scatter<update_window_dims = [1], inserted_window_dims = [0], scatter_dims_to_operand_dims = [0], index_vector_dim = 1>, unique_indices = false}> ({\n    ^bb0(%4: tensor<f32>, %5: tensor<f32>):\n      %6 = stablehlo.multiply %4, %5 : tensor<f32>\n      stablehlo.return %6 : tensor<f32>\n    }) : (tensor<5x3xf32>, tensor<2x1xi32>, tensor<2x3xf32>) -> tensor<5x3xf32>\n    return %3 : tensor<5x3xf32>\n  }\n}\n"},{"name":"scatter_sub","text":"module {\n  func.func public @main(%0: tensor<5x3xf32>, %1: tensor<2x1xi32>, %2: tensor<2x3xf32>) -> (tensor<5x3xf32>) {\n    %3 = \"stablehlo.scatter\"(%0, %1, %2) <{indices_are_sorted = false, scatter_dimension_numbers = #stablehlo.scatter<update_window_dims = [1], inserted_window_dims = [0], scatter_dims_to_operand_dims = [0], index_vector_dim = 1>, unique_indices = false}> ({\n    ^bb0(%4: tensor<f32>, %5: tensor<f32>):\n      %6 = stablehlo.subtract %4, %5 : tensor<f32>\n      stablehlo.return %6 : tensor<f32>\n    }) : (tensor<5x3xf32>, tensor<2x1xi32>, tensor<2x3xf32>) -> tensor<5x3xf32>\n    return %3 : tensor<5x3xf32>\n  }\n}\n"},{"name":"select_and_gather_add","text":"module {\n  func.func public @main(%0: tensor<5xf32>, %1: tensor<5xf32>) -> (tensor<4xf32>) {\n    %2 = stablehlo.constant dense<0xFF800000> : tensor<f32>\n    %3 = stablehlo.constant dense<0.000000e+00> : tensor<f32>\n    %4:2 = \"stablehlo.reduce_window\"(%1, %0, %2, %3) <{base_dilations = array<i64: 1>, padding = dense<0> : tensor<1x2xi64>, window_dilations = array<i64: 1>, window_dimensions = array<i64: 2>, window_strides = array<i64: 1>}> ({\n    ^bb0(%5: tensor<f32>, %6: tensor<f32>, %7: tensor<f32>, %8: tensor<f32>):\n      %9 = stablehlo.compare GE, %5, %7, FLOAT : (tensor<f32>, tensor<f32>) -> tensor<i1>\n      %10 = stablehlo.select %9, %5, %7 : tensor<i1>, tensor<f32>\n      %11 = stablehlo.select %9, %6, %8 : tensor<i1>, tensor<f32>\n      stablehlo.return %10, %11 : tensor<f32>, tensor<f32>\n    }) : (tensor<5xf32>, tensor<5xf32>, tensor<f32>, tensor<f32>) -> (tensor<4xf32>, tensor<4xf32>)\n    return %4#1 : tensor<4xf32>\n  }\n}\n"},{"name":"select_and_scatter_add","text":"module {\n  func.func public @main(%0: tensor<4xf32>, %1: tensor<5xf32>) -> (tensor<5xf32>) {\n    %2 = stablehlo.constant dense<0xFF800000> : tensor<f32>\n    %3 = stablehlo.pad %1, %2, low = [0], high = [0], interior = [0] : (tensor<5xf32>, tensor<f32>) -> tensor<5xf32>\n    %4 = stablehlo.constant dense<0.000000e+00> : tensor<f32>\n    %5 = \"stablehlo.select_and_scatter\"(%3, %0, %4) <{padding = dense<0> : tensor<1x2xi64>, window_dimensions = array<i64: 2>, window_strides = array<i64: 1>}> ({\n    ^bb0(%6: tensor<f32>, %7: tensor<f32>):\n      %8 = stablehlo.compare GE, %6, %7, FLOAT : (tensor<f32>, tensor<f32>) -> tensor<i1>\n      stablehlo.return %8 : tensor<i1>\n    }, {\n    ^bb0(%6: tensor<f32>, %7: tensor<f32>):\n      %8 = stablehlo.add %6, %7 : tensor<f32>\n      stablehlo.return %8 : tensor<f32>\n    }) : (tensor<5xf32>, tensor<4xf32>, tensor<f32>) -> tensor<5xf32>\n    %9 = stablehlo.slice %5 [0:5] : (tensor<5xf32>) -> tensor<5xf32>\n    return %9 : tensor<5xf32>\n  }\n}\n"},{"name":"select_n2","text":"module {\n  func.func public @main(%0: tensor<3xi1>, %1: tensor<3xf32>, %2: tensor<3xf32>) -> (tensor<3xf32>) {\n    %3 = stablehlo.select %0, %2, %1 : tensor<3xi1>, tensor<3xf32>\n    return %3 : tensor<3xf32>\n  }\n}\n"},{"name":"select_n3","text":"module {\n  func.func public @main(%0: tensor<3xi32>, %1: tensor<3xf32>, %2: tensor<3xf32>, %3: tensor<3xf32>) -> (tensor<3xf32>) {\n    %4 = stablehlo.constant dense<1> : tensor<i32>\n    %5 = stablehlo.broadcast_in_dim %4, dims = [] : (tensor<i32>) -> tensor<3xi32>\n    %6 = stablehlo.compare LT, %0, %5, SIGNED : (tensor<3xi32>, tensor<3xi32>) -> tensor<3xi1>\n    %7 = stablehlo.constant dense<2> : tensor<i32>\n    %8 = stablehlo.broadcast_in_dim %7, dims = [] : (tensor<i32>) -> tensor<3xi32>\n    %9 = stablehlo.compare LT, %0, %8, SIGNED : (tensor<3xi32>, tensor<3xi32>) -> tensor<3xi1>\n    %10 = stablehlo.select %9, %2, %3 : tensor<3xi1>, tensor<3xf32>\n    %11 = stablehlo.select %6, %1, %10 : tensor<3xi1>, tensor<3xf32>\n    return %11 : tensor<3xf32>\n  }\n}\n"},{"name":"shape_broadcast_in_dim","text":"module {\n  func.func public @main(%0: tensor<3xf32>) -> (tensor<2x3xf32>) {\n    %1 = stablehlo.broadcast_in_dim %0, dims = [1] : (tensor<3xf32>) -> tensor<2x3xf32>\n    return %1 : tensor<2x3xf32>\n  }\n}\n"},{"name":"shape_concatenate","text":"module {\n  func.func public @main(%0: tensor<2xf32>, %1: tensor<3xf32>) -> (tensor<5xf32>) {\n    %2 = stablehlo.concatenate %0, %1, dim = 0 : (tensor<2xf32>, tensor<3xf32>) -> tensor<5xf32>\n    return %2 : tensor<5xf32>\n  }\n}\n"},{"name":"shape_iota","text":"module {\n  func.func public @main() -> (tensor<2x3xi32>) {\n    %0 = stablehlo.iota dim = 1 : tensor<2x3xi32>\n    return %0 : tensor<2x3xi32>\n  }\n}\n"},{"name":"shape_pad","text":"module {\n  func.func public @main(%0: tensor<3xf32>) -> (tensor<6xf32>) {\n    %1 = stablehlo.constant dense<0.000000e+00> : tensor<f32>\n    %2 = stablehlo.pad %0, %1, low = [1], high = [2], interior = [0] : (tensor<3xf32>, tensor<f32>) -> tensor<6xf32>\n    return %2 : tensor<6xf32>\n  }\n}\n"},{"name":"shape_pad_interior","text":"module {\n  func.func public @main(%0: tensor<3xf32>) -> (tensor<5xf32>) {\n    %1 = stablehlo.constant dense<0.000000e+00> : tensor<f32>\n    %2 = stablehlo.pad %0, %1, low = [0], high = [0], interior = [1] : (tensor<3xf32>, tensor<f32>) -> tensor<5xf32>\n    return %2 : tensor<5xf32>\n  }\n}\n"},{"name":"shape_reshape","text":"module {\n  func.func public @main(%0: tensor<6xf32>) -> (tensor<2x3xf32>) {\n    %1 = stablehlo.reshape %0 : (tensor<6xf32>) -> tensor<2x3xf32>\n    return %1 : tensor<2x3xf32>\n  }\n}\n"},{"name":"shape_rev","text":"module {\n  func.func public @main(%0: tensor<3xf32>) -> (tensor<3xf32>) {\n    %1 = stablehlo.reverse %0, dims = [0] : tensor<3xf32>\n    return %1 : tensor<3xf32>\n  }\n}\n"},{"name":"shape_split","text":"module {\n  func.func public @main(%0: tensor<5xf32>) -> (tensor<2xf32>, tensor<3xf32>) {\n    %1 = stablehlo.slice %0 [0:2] : (tensor<5xf32>) -> tensor<2xf32>\n    %2 = stablehlo.slice %0 [2:5] : (tensor<5xf32>) -> tensor<3xf32>\n    return %1, %2 : tensor<2xf32>, tensor<3xf32>\n  }\n}\n"},{"name":"shape_squeeze","text":"module {\n  func.func public @main(%0: tensor<1x3xf32>) -> (tensor<3xf32>) {\n    %1 = stablehlo.reshape %0 : (tensor<1x3xf32>) -> tensor<3xf32>\n    return %1 : tensor<3xf32>\n  }\n}\n"},{"name":"shape_stack","text":"module {\n  func.func public @main(%0: tensor<3xf32>, %1: tensor<3xf32>) -> (tensor<2x3xf32>) {\n    %2 = stablehlo.broadcast_in_dim %0, dims = [1] : (tensor<3xf32>) -> tensor<1x3xf32>\n    %3 = stablehlo.broadcast_in_dim %1, dims = [1] : (tensor<3xf32>) -> tensor<1x3xf32>\n    %4 = stablehlo.concatenate %2, %3, dim = 0 : (tensor<1x3xf32>, tensor<1x3xf32>) -> tensor<2x3xf32>\n    return %4 : tensor<2x3xf32>\n  }\n}\n"},{"name":"shape_tile","text":"module {\n  func.func public @main(%0: tensor<3xf32>) -> (tensor<6xf32>) {\n    %1 = stablehlo.reshape %0 : (tensor<3xf32>) -> tensor<1x3xf32>\n    %2 = stablehlo.broadcast_in_dim %1, dims = [0, 1] : (tensor<1x3xf32>) -> tensor<2x3xf32>\n    %3 = stablehlo.reshape %2 : (tensor<2x3xf32>) -> tensor<6xf32>\n    return %3 : tensor<6xf32>\n  }\n}\n"},{"name":"shape_transpose","text":"module {\n  func.func public @main(%0: tensor<2x3xf32>) -> (tensor<3x2xf32>) {\n    %1 = stablehlo.transpose %0, dims = [1, 0] : (tensor<2x3xf32>) -> tensor<3x2xf32>\n    return %1 : tensor<3x2xf32>\n  }\n}\n"},{"name":"shape_unstack","text":"module {\n  func.func public @main(%0: tensor<2x3xf32>) -> (tensor<3xf32>, tensor<3xf32>) {\n    %1 = stablehlo.slice %0 [0:1, 0:3] : (tensor<2x3xf32>) -> tensor<1x3xf32>\n    %2 = stablehlo.reshape %1 : (tensor<1x3xf32>) -> tensor<3xf32>\n    %3 = stablehlo.slice %0 [1:2, 0:3] : (tensor<2x3xf32>) -> tensor<1x3xf32>\n    %4 = stablehlo.reshape %3 : (tensor<1x3xf32>) -> tensor<3xf32>\n    return %2, %4 : tensor<3xf32>, tensor<3xf32>\n  }\n}\n"},{"name":"slice","text":"module {\n  func.func public @main(%0: tensor<6xf32>) -> (tensor<3xf32>) {\n    %1 = stablehlo.slice %0 [1:4] : (tensor<6xf32>) -> tensor<3xf32>\n    return %1 : tensor<3xf32>\n  }\n}\n"},{"name":"slice_strided","text":"module {\n  func.func public @main(%0: tensor<3x5xf32>) -> (tensor<2x2xf32>) {\n    %1 = stablehlo.slice %0 [0:2, 1:4:2] : (tensor<3x5xf32>) -> tensor<2x2xf32>\n    return %1 : tensor<2x2xf32>\n  }\n}\n"},{"name":"sort","text":"module {\n  func.func public @main(%0: tensor<5xf32>) -> (tensor<5xf32>) {\n    %1 = \"stablehlo.sort\"(%0) <{dimension = 0 : i64, is_stable = true}> ({\n    ^bb0(%2: tensor<f32>, %3: tensor<f32>):\n      %4 = stablehlo.constant dense<0.000000e+00> : tensor<f32>\n      %5 = stablehlo.compare EQ, %2, %4, FLOAT : (tensor<f32>, tensor<f32>) -> tensor<i1>\n      %6 = stablehlo.constant dense<0.000000e+00> : tensor<f32>\n      %7 = stablehlo.select %5, %6, %2 : tensor<i1>, tensor<f32>\n      %8 = stablehlo.compare NE, %2, %2, FLOAT : (tensor<f32>, tensor<f32>) -> tensor<i1>\n      %9 = stablehlo.constant dense<0x7FC00000> : tensor<f32>\n      %10 = stablehlo.select %8, %9, %7 : tensor<i1>, tensor<f32>\n      %11 = stablehlo.constant dense<0.000000e+00> : tensor<f32>\n      %12 = stablehlo.compare EQ, %3, %11, FLOAT : (tensor<f32>, tensor<f32>) -> tensor<i1>\n      %13 = stablehlo.constant dense<0.000000e+00> : tensor<f32>\n      %14 = stablehlo.select %12, %13, %3 : tensor<i1>, tensor<f32>\n      %15 = stablehlo.compare NE, %3, %3, FLOAT : (tensor<f32>, tensor<f32>) -> tensor<i1>\n      %16 = stablehlo.constant dense<0x7FC00000> : tensor<f32>\n      %17 = stablehlo.select %15, %16, %14 : tensor<i1>, tensor<f32>\n      %18 = stablehlo.compare LT, %10, %17, TOTALORDER : (tensor<f32>, tensor<f32>) -> tensor<i1>\n      stablehlo.return %18 : tensor<i1>\n    }) : (tensor<5xf32>) -> tensor<5xf32>\n    return %1 : tensor<5xf32>\n  }\n}\n"},{"name":"special_bessel_i1e","text":"module {\n  func.func public @main(%0: tensor<3xf32>) -> (tensor<3xf32>) {\n    %1 = chlo.bessel_i1e %0 : tensor<3xf32> -> tensor<3xf32>\n    return %1 : tensor<3xf32>\n  }\n}\n"},{"name":"special_digamma","text":"module {\n  func.func public @main(%0: tensor<3xf32>) -> (tensor<3xf32>) {\n    %1 = chlo.digamma %0 : tensor<3xf32> -> tensor<3xf32>\n    return %1 : tensor<3xf32>\n  }\n}\n"},{"name":"special_erf","text":"module {\n  func.func public @main(%0: tensor<3xf32>) -> (tensor<3xf32>) {\n    %1 = chlo.erf %0 : tensor<3xf32> -> tensor<3xf32>\n    return %1 : tensor<3xf32>\n  }\n}\n"},{"name":"special_erf_inv","text":"module {\n  func.func public @main(%0: tensor<3xf32>) -> (tensor<3xf32>) {\n    %1 = chlo.erf_inv %0 : tensor<3xf32> -> tensor<3xf32>\n    return %1 : tensor<3xf32>\n  }\n}\n"},{"name":"special_erfc","text":"module {\n  func.func public @main(%0: tensor<3xf32>) -> (tensor<3xf32>) {\n    %1 = chlo.erfc %0 : tensor<3xf32> -> tensor<3xf32>\n    return %1 : tensor<3xf32>\n  }\n}\n"},{"name":"special_lgamma","text":"module {\n  func.func public @main(%0: tensor<3xf32>) -> (tensor<3xf32>) {\n    %1 = chlo.lgamma %0 : tensor<3xf32> -> tensor<3xf32>\n    return %1 : tensor<3xf32>\n  }\n}\n"},{"name":"special_polygamma","text":"module {\n  func.func public @main(%0: tensor<3xf32>, %1: tensor<3xf32>) -> (tensor<3xf32>) {\n    %2 = chlo.polygamma %0, %1 : tensor<3xf32>, tensor<3xf32> -> tensor<3xf32>\n    return %2 : tensor<3xf32>\n  }\n}\n"},{"name":"special_zeta","text":"module {\n  func.func public @main(%0: tensor<3xf32>, %1: tensor<3xf32>) -> (tensor<3xf32>) {\n    %2 = chlo.zeta %0, %1 : tensor<3xf32>, tensor<3xf32> -> tensor<3xf32>\n    return %2 : tensor<3xf32>\n  }\n}\n"},{"name":"tie","text":"module {\n  func.func public @main(%0: tensor<3xf32>, %1: tensor<3xf32>) -> (tensor<3xf32>) {\n    return %1 : tensor<3xf32>\n  }\n}\n"},{"name":"top_k","text":"module {\n  func.func public @main(%0: tensor<5xf32>) -> (tensor<2xf32>, tensor<2xi32>) {\n    %1, %2 = chlo.top_k(%0, k = 2) : tensor<5xf32> -> (tensor<2xf32>, tensor<2xi32>)\n    return %1, %2 : tensor<2xf32>, tensor<2xi32>\n  }\n}\n"},{"name":"unary_abs","text":"module {\n  func.func public @main(%0: tensor<3xf32>) -> (tensor<3xf32>) {\n    %1 = stablehlo.abs %0 : tensor<3xf32>\n    return %1 : tensor<3xf32>\n  }\n}\n"},{"name":"unary_acos","text":"module {\n  func.func public @main(%0: tensor<3xf32>) -> (tensor<3xf32>) {\n    %1 = chlo.acos %0 : tensor<3xf32> -> tensor<3xf32>\n    return %1 : tensor<3xf32>\n  }\n}\n"},{"name":"unary_acosh","text":"module {\n  func.func public @main(%0: tensor<3xf32>) -> (tensor<3xf32>) {\n    %1 = chlo.acosh %0 : tensor<3xf32> -> tensor<3xf32>\n    return %1 : tensor<3xf32>\n  }\n}\n"},{"name":"unary_asin","text":"module {\n  func.func public @main(%0: tensor<3xf32>) -> (tensor<3xf32>) {\n    %1 = chlo.asin %0 : tensor<3xf32> -> tensor<3xf32>\n    return %1 : tensor<3xf32>\n  }\n}\n"},{"name":"unary_asinh","text":"module {\n  func.func public @main(%0: tensor<3xf32>) -> (tensor<3xf32>) {\n    %1 = chlo.asinh %0 : tensor<3xf32> -> tensor<3xf32>\n    return %1 : tensor<3xf32>\n  }\n}\n"},{"name":"unary_atan","text":"module {\n  func.func public @main(%0: tensor<3xf32>) -> (tensor<3xf32>) {\n    %1 = chlo.atan %0 : tensor<3xf32> -> tensor<3xf32>\n    return %1 : tensor<3xf32>\n  }\n}\n"},{"name":"unary_atanh","text":"module {\n  func.func public @main(%0: tensor<3xf32>) -> (tensor<3xf32>) {\n    %1 = chlo.atanh %0 : tensor<3xf32> -> tensor<3xf32>\n    return %1 : tensor<3xf32>\n  }\n}\n"},{"name":"unary_cbrt","text":"module {\n  func.func public @main(%0: tensor<3xf32>) -> (tensor<3xf32>) {\n    %1 = stablehlo.cbrt %0 : tensor<3xf32>\n    return %1 : tensor<3xf32>\n  }\n}\n"},{"name":"unary_ceil","text":"module {\n  func.func public @main(%0: tensor<3xf32>) -> (tensor<3xf32>) {\n    %1 = stablehlo.ceil %0 : tensor<3xf32>\n    return %1 : tensor<3xf32>\n  }\n}\n"},{"name":"unary_clz","text":"module {\n  func.func public @main(%0: tensor<3xi32>) -> (tensor<3xi32>) {\n    %1 = stablehlo.count_leading_zeros %0 : tensor<3xi32>\n    return %1 : tensor<3xi32>\n  }\n}\n"},{"name":"unary_copy","text":"module {\n  func.func public @main(%0: tensor<3xf32>) -> (tensor<3xf32>) {\n    return %0 : tensor<3xf32>\n  }\n}\n"},{"name":"unary_cos","text":"module {\n  func.func public @main(%0: tensor<3xf32>) -> (tensor<3xf32>) {\n    %1 = stablehlo.cosine %0 : tensor<3xf32>\n    return %1 : tensor<3xf32>\n  }\n}\n"},{"name":"unary_cosh","text":"module {\n  func.func public @main(%0: tensor<3xf32>) -> (tensor<3xf32>) {\n    %1 = chlo.cosh %0 : tensor<3xf32> -> tensor<3xf32>\n    return %1 : tensor<3xf32>\n  }\n}\n"},{"name":"unary_exp","text":"module {\n  func.func public @main(%0: tensor<3xf32>) -> (tensor<3xf32>) {\n    %1 = stablehlo.exponential %0 : tensor<3xf32>\n    return %1 : tensor<3xf32>\n  }\n}\n"},{"name":"unary_exp2","text":"module {\n  func.func public @main(%0: tensor<3xf32>) -> (tensor<3xf32>) {\n    %1 = stablehlo.constant dense<0.693147182> : tensor<f32>\n    %2 = stablehlo.broadcast_in_dim %1, dims = [] : (tensor<f32>) -> tensor<3xf32>\n    %3 = stablehlo.multiply %2, %0 : tensor<3xf32>\n    %4 = stablehlo.exponential %3 : tensor<3xf32>\n    return %4 : tensor<3xf32>\n  }\n}\n"},{"name":"unary_expm1","text":"module {\n  func.func public @main(%0: tensor<3xf32>) -> (tensor<3xf32>) {\n    %1 = stablehlo.exponential_minus_one %0 : tensor<3xf32>\n    return %1 : tensor<3xf32>\n  }\n}\n"},{"name":"unary_floor","text":"module {\n  func.func public @main(%0: tensor<3xf32>) -> (tensor<3xf32>) {\n    %1 = stablehlo.floor %0 : tensor<3xf32>\n    return %1 : tensor<3xf32>\n  }\n}\n"},{"name":"unary_integer_pow","text":"module {\n  func.func public @main(%0: tensor<3xf32>) -> (tensor<3xf32>) {\n    %1 = stablehlo.multiply %0, %0 : tensor<3xf32>\n    %2 = stablehlo.multiply %1, %0 : tensor<3xf32>\n    return %2 : tensor<3xf32>\n  }\n}\n"},{"name":"unary_is_finite","text":"module {\n  func.func public @main(%0: tensor<3xf32>) -> (tensor<3xi1>) {\n    %1 = stablehlo.is_finite %0 : (tensor<3xf32>) -> tensor<3xi1>\n    return %1 : tensor<3xi1>\n  }\n}\n"},{"name":"unary_log","text":"module {\n  func.func public @main(%0: tensor<3xf32>) -> (tensor<3xf32>) {\n    %1 = stablehlo.log %0 : tensor<3xf32>\n    return %1 : tensor<3xf32>\n  }\n}\n"},{"name":"unary_log1p","text":"module {\n  func.func public @main(%0: tensor<3xf32>) -> (tensor<3xf32>) {\n    %1 = stablehlo.log_plus_one %0 : tensor<3xf32>\n    return %1 : tensor<3xf32>\n  }\n}\n"},{"name":"unary_logistic","text":"module {\n  func.func public @main(%0: tensor<3xf32>) -> (tensor<3xf32>) {\n    %1 = stablehlo.negate %0 : tensor<3xf32>\n    %2 = stablehlo.exponential %1 : tensor<3xf32>\n    %3 = stablehlo.constant dense<1.000000e+00> : tensor<f32>\n    %4 = stablehlo.broadcast_in_dim %3, dims = [] : (tensor<f32>) -> tensor<3xf32>\n    %5 = stablehlo.add %4, %2 : tensor<3xf32>\n    %6 = stablehlo.constant dense<1.000000e+00> : tensor<f32>\n    %7 = stablehlo.broadcast_in_dim %6, dims = [] : (tensor<f32>) -> tensor<3xf32>\n    %8 = stablehlo.divide %7, %5 : tensor<3xf32>\n    return %8 : tensor<3xf32>\n  }\n}\n"},{"name":"unary_neg","text":"module {\n  func.func public @main(%0: tensor<3xf32>) -> (tensor<3xf32>) {\n    %1 = stablehlo.negate %0 : tensor<3xf32>\n    return %1 : tensor<3xf32>\n  }\n}\n"},{"name":"unary_not","text":"module {\n  func.func public @main(%0: tensor<3xi32>) -> (tensor<3xi32>) {\n    %1 = stablehlo.not %0 : tensor<3xi32>\n    return %1 : tensor<3xi32>\n  }\n}\n"},{"name":"unary_population_count","text":"module {\n  func.func public @main(%0: tensor<3xi32>) -> (tensor<3xi32>) {\n    %1 = stablehlo.popcnt %0 : tensor<3xi32>\n    return %1 : tensor<3xi32>\n  }\n}\n"},{"name":"unary_round","text":"module {\n  func.func public @main(%0: tensor<3xf32>) -> (tensor<3xf32>) {\n    %1 = stablehlo.round_nearest_afz %0 : tensor<3xf32>\n    return %1 : tensor<3xf32>\n  }\n}\n"},{"name":"unary_rsqrt","text":"module {\n  func.func public @main(%0: tensor<3xf32>) -> (tensor<3xf32>) {\n    %1 = stablehlo.rsqrt %0 : tensor<3xf32>\n    return %1 : tensor<3xf32>\n  }\n}\n"},{"name":"unary_sign","text":"module {\n  func.func public @main(%0: tensor<3xf32>) -> (tensor<3xf32>) {\n    %1 = stablehlo.sign %0 : tensor<3xf32>\n    return %1 : tensor<3xf32>\n  }\n}\n"},{"name":"unary_sin","text":"module {\n  func.func public @main(%0: tensor<3xf32>) -> (tensor<3xf32>) {\n    %1 = stablehlo.sine %0 : tensor<3xf32>\n    return %1 : tensor<3xf32>\n  }\n}\n"},{"name":"unary_sinh","text":"module {\n  func.func public @main(%0: tensor<3xf32>) -> (tensor<3xf32>) {\n    %1 = chlo.sinh %0 : tensor<3xf32> -> tensor<3xf32>\n    return %1 : tensor<3xf32>\n  }\n}\n"},{"name":"unary_sqrt","text":"module {\n  func.func public @main(%0: tensor<3xf32>) -> (tensor<3xf32>) {\n    %1 = stablehlo.sqrt %0 : tensor<3xf32>\n    return %1 : tensor<3xf32>\n  }\n}\n"},{"name":"unary_square","text":"module {\n  func.func public @main(%0: tensor<3xf32>) -> (tensor<3xf32>) {\n    %1 = chlo.square %0 : tensor<3xf32> -> tensor<3xf32>\n    return %1 : tensor<3xf32>\n  }\n}\n"},{"name":"unary_tan","text":"module {\n  func.func public @main(%0: tensor<3xf32>) -> (tensor<3xf32>) {\n    %1 = stablehlo.tan %0 : tensor<3xf32>\n    return %1 : tensor<3xf32>\n  }\n}\n"},{"name":"unary_tanh","text":"module {\n  func.func public @main(%0: tensor<3xf32>) -> (tensor<3xf32>) {\n    %1 = stablehlo.tanh %0 : tensor<3xf32>\n    return %1 : tensor<3xf32>\n  }\n}\n"}]}
